Part_1_Deep_Q_Learning/checkpoint.pth (torch, 22566 bytes, 6 tensors)

fc1.weight f4 [64, 8]
000000 aa 63 f8 3e c4 20 3b 3f d9 63 fa 3e 22 47 c3 3f
       0.48513538 0.7309687 0.48904303 1.5256083
000010 87 a2 f5 be 40 5b a6 3e 9a 4e 37 be bb 64 2d bf
       -0.4797556 0.32491493 -0.17901078 -0.6773183
000020 b7 e8 8a 3f f0 9e e7 be ac a7 04 3f da 2e 07 bf
       1.0852269 -0.45238447 0.51818347 -0.52805865
000030 99 9c 6e 3e f3 b2 88 3d 1a ed 36 3e b6 cb fb bd
       0.23301925 0.06674757 0.17863885 -0.12294714
000040 eb cc 32 3f a5 41 62 be 4c d1 61 3e 13 4a 95 3f
       0.6984393 -0.22095354 0.22052497 1.1663231
000050 9d 27 bb be e3 12 8f be 5b 35 98 be 9e 6d 22 3f
       -0.3655366 -0.27944097 -0.29728207 0.6344851
000060 a2 8c 32 bf 98 5a 1c bf 50 28 19 bf 99 8e 8c bd
       -0.6974584 -0.61075735 -0.59827137 -0.06863136
000070 98 e7 93 be 5e 96 3f be ac cf ed 3e 7e c9 36 3d
       -0.2888763 -0.18709704 0.46447504 0.04462575
000080 42 0e b8 3e f3 25 94 3e a2 c3 35 be e3 58 69 3c
       0.35948378 0.28935203 -0.17750409 0.014242384
000090 0e 6a 11 3e 17 71 eb 3e 4e 4e 86 3d 27 d9 0c be
       0.14200613 0.45984718 0.06557904 -0.13754712
0000a0 97 ad 19 3e a2 61 b1 bf 4e 97 13 3e ca 37 8e 40
       0.15007626 -1.385792 0.14413187 4.44431
0000b0 bc dc 33 be 5a 2e 68 be 05 67 cd 3e 1c 14 1a be
       -0.17564672 -0.22673932 0.4011766 -0.15046734
0000c0 56 e6 4a be 54 aa 31 bf 6c a5 19 bf cc b7 cd be
       -0.19814429 -0.69400525 -0.6001804 -0.40179288
0000d0 3f b8 64 3f 44 8f 27 3f bf 6c 10 3e 89 61 48 3e
       0.8934364 0.6545298 0.14103983 0.19568457
0000e0 e5 79 b2 bb b6 48 9b be d5 fb dc 3e 87 c1 0a bf
       -0.00544666 -0.30328912 0.43160883 -0.5420155
0000f0 43 ba 03 bf 98 5c 31 be a2 f1 b4 3e cc f4 d1 3d
       -0.5145609 -0.17320478 0.353406 0.102517694
000100 34 00 c5 3e 1c 86 70 be 3c 4c 3d 3f e0 1d b4 be
       0.38476717 -0.23488659 0.7394445 -0.35179043
000110 3d 2e 1e bf 06 03 d5 bd 4a 6f ef 3e d4 7e ad 3e
       -0.61789304 -0.10400967 0.46764594 0.33885825
000120 ac c1 14 3e 2b 01 cb bf e6 6a f8 be 74 66 bd bf
       0.14527005 -1.5859731 -0.48519057 -1.4796891
000130 aa 36 a1 3e dc eb d6 3e bc b6 00 3e 42 4c b5 3e
       0.31487018 0.4197682 0.12569708 0.35409743
000140 6e 75 c6 be 2d 78 cc be a1 78 55 be 63 2c 25 bf
       -0.38761467 -0.39935437 -0.20846798 -0.64520854
000150 49 39 79 3f 0e e5 93 3e eb a3 b0 3e 3c d5 fa be
       0.97353035 0.28885692 0.3450006 -0.4899081
000160 2a d0 6b bd 3c ea 06 3d 92 d9 53 3f dd 6d 31 bf
       -0.057571568 0.032938227 0.8275386 -0.69308263
000170 89 06 4a 3f 2f 91 56 3f 7e 59 98 bf df 3e c8 bb
       0.7891622 0.8381528 -1.1902311 -0.0061110104
000180 36 4b d6 3e ed 0a 62 3e ce 70 24 be b8 13 b7 bf
       0.41854256 0.2207448 -0.16058657 -1.4302893
000190 b6 3b 38 bf 6b 86 ed 3e b4 c3 64 3e 0f 19 48 bc
       -0.7196611 0.46391615 0.2234028 -0.012213006
0001a0 a8 e0 56 be f3 a7 08 bf 42 33 8a bf 77 46 31 bf
       -0.20984137 -0.5338127 -1.0796893 -0.69248146
0001b0 30 4b 94 3d be 6e 07 3e 7d 9e b7 3e ec 2f ca 3d
       0.072409034 0.13225839 0.35863104 0.098724216
0001c0 d5 de a8 3d 9b 82 2b c0 b3 43 ed be 34 21 dd bf
       0.08245627 -2.6798465 -0.46340713 -1.7275758
0001d0 e0 94 d9 3d 59 b1 82 be ae 3b c6 3c 2f 29 7a bb
       0.10624099 -0.2552593 0.02419838 -0.003817152
0001e0 33 06 2c 3d aa e5 f7 be 33 79 27 3f 85 ab 7f bf
       0.0419981 -0.48417407 0.6541931 -0.99871093
0001f0 7e 8b ad be eb cd 71 be 95 f4 d6 3d 2d c5 9a be
       -0.33895487 -0.23613708 0.10495869 -0.30228558
000200 1e 49 82 bc 52 52 37 bd 91 8f f8 3f a8 fd 86 3f
       -0.015904006 -0.04475624 1.9418813 1.054616
000210 bd 99 47 bf 18 12 35 3e bb 7c 96 3d b1 c8 10 3e
       -0.7796896 0.17682683 0.07348009 0.14139058
000220 6f 4a 01 bf 75 77 40 bf f5 b9 d7 be 28 08 e4 be
       -0.505042 -0.75182277 -0.4213406 -0.44537473
000230 41 20 c4 3e b5 11 65 3e ca ce 5b 3e 8b 4b f4 be
       0.38305858 0.22370036 0.21465603 -0.47713885
000240 8b b0 d2 3e 65 8f 90 3e 01 2c 8b 3d 99 15 bc 3f
       0.41150317 0.282344 0.067955025 1.4694091
000250 0b 7f a4 3e 24 34 2b bf 62 b0 8a 3e 7f 92 a8 3e
       0.32128176 -0.66876435 0.27087694 0.32924268
000260 2b d7 0a 3d 58 b0 63 bf e7 17 1d 3f 93 cb 61 bf
       0.033896606 -0.88940954 0.613646 -0.88201255
000270 c0 01 1b 3f ee 77 e6 3b 7e 42 6d be db 21 68 be
       0.60549545 0.0070333397 -0.23169896 -0.22669165
000280 9e 44 2b 3f ca cb d0 be a2 9c 88 3e 46 ae 5c be
       0.66901577 -0.4078048 0.26682 -0.21550855
000290 15 5e 4d be c4 86 cd be 16 08 5b be 9b 32 b6 3e
       -0.2005542 -0.4014188 -0.21389803 0.35585484
0002a0 c4 90 1f 3c fe 13 d8 bb 7d 7a d0 bd ae 8a a0 be
       0.009739105 -0.00659418 -0.10179613 -0.31355804
0002b0 21 69 8d 3f d4 65 85 3e fb 5f 20 bf d1 64 38 3e
       1.1047708 0.2605425 -0.62646455 0.18007208
0002c0 7a 27 e6 be 27 00 d4 3e 39 88 06 3f 3d 48 a9 bf
       -0.44951993 0.41406366 0.5255161 -1.322517
0002d0 92 14 3b 3d c7 38 47 3f 59 14 50 bd 65 0c e0 3d
       0.045673914 0.7782101 -0.050800655 0.10939864
0002e0 7a 6d 30 3f c7 79 8f be 2f 4d 0c 3f a3 98 ec be
       0.6891705 -0.28022596 0.5480527 -0.46210203
0002f0 09 39 1b be 8b ef 2b 3e 62 2a 01 3e 89 a1 16 3e
       -0.15158476 0.16790597 0.12613824 0.14710058
000300 26 0f 2e 3f b6 2f 2c bd 11 85 bc 3e 73 7e cb 3d
       0.67991865 -0.04203769 0.36820272 0.09936228
000310 a1 f0 e4 bd ef b9 3f bb 32 98 e1 3e a6 38 07 3f
       -0.11178709 -0.0029255112 0.44061428 0.52820814
000320 ce 35 cc be df 8b 06 bd f1 e4 8e 3e 69 12 d7 3d
       -0.398848 -0.032848235 0.27909043 0.10501558
000330 52 91 30 c0 77 4a 3c 3e 81 0e 7c 3e 83 23 05 be
       -2.7588696 0.18387781 0.24614908 -0.13001828
000340 01 58 57 bd 82 22 bb 3d 79 e6 3d be 1c b1 0e 3d
       -0.05257416 0.09137441 -0.1854495 0.034836873
000350 95 3a f9 bd ee 7e 3c bf 89 c6 a9 bf 21 7c 04 3f
       -0.12169377 -0.7363118 -1.3263713 0.51751906
000360 0d f5 55 3f 10 04 bc be b8 d3 06 3f 12 e5 82 bf
       0.8357704 -0.3672185 0.5266681 -1.0226157
000370 f5 8d 2f bf 18 7d 23 bd d3 14 30 3d 18 be 8d be
       -0.68575984 -0.03991422 0.04298861 -0.27684093
000380 0a 7a 90 be 23 b9 37 3d 78 bf 2f be 4b d3 89 3f
       -0.28218108 0.044854295 -0.17162883 1.0767606
000390 21 77 d7 be 83 b4 3d bf 02 47 92 bf 98 c5 16 3f
       -0.42083076 -0.74103564 -1.142792 0.58895254
0003a0 ed 27 15 bb 55 95 0d 3f c5 90 e9 3e 07 c5 c6 bd
       -0.0022759393 0.5530599 0.45618263 -0.09705549
0003b0 c9 f4 0c 3f 38 03 87 bf 6b d9 d3 bd 5c e0 90 3d
       0.5506101 -1.0547857 -0.103442036 0.07074043
0003c0 ba a8 47 3e d5 3e ab be 5e f8 7f bf 1b b3 84 bf
       0.19497958 -0.33446375 -0.99988353 -1.0367159
0003d0 30 d4 86 bc fb 4e bf be 3d e1 a5 3d 33 02 bc 3e
       -0.0164586 -0.37364945 0.080996014 0.36720428
0003e0 1f de 43 3d a9 48 bb 3e 57 cd 5e 3d ff 00 4f bf
       0.047819253 0.36578873 0.054395046 -0.80860895
0003f0 04 e4 fc be a2 35 98 3e 8e 34 74 3d 43 bb 3f bc
       -0.49392712 0.2972842 0.059620433 -0.0117023615

fc1.bias f4 [64]
000000 68 b5 78 3e f2 65 3c bd 06 03 a0 be eb db e9 be
       0.24287951 -0.04599566 -0.31252307 -0.45675597
000010 cf 95 51 3f e5 a7 6d be 86 c6 10 3e 00 f3 bc 3d
       0.81869215 -0.23208578 0.1413823 0.09226036
000020 a8 71 31 be 32 8e ae 3d 49 74 b5 bd 23 b0 8c 3e
       -0.17328513 0.08523215 -0.0886007 0.27478132
000030 4b 34 14 3f 2e 92 c5 be c4 81 87 3d cc 4a 3e 3e
       0.5789229 -0.3858809 0.06616548 0.1858322
000040 32 d1 b8 3d e6 74 2a 3e 60 a8 54 3f dd b2 12 be
       0.09024276 0.16646156 0.8306942 -0.14326043
000050 dc aa 33 bf a9 67 dc 3e aa d9 cf 3e 6c c6 87 be
       -0.70182586 0.43047836 0.40595752 -0.2651857
000060 a2 a2 49 be 4b c8 79 3d 42 83 56 3b 4a 2a 0a 3e
       -0.19690946 0.06098203 0.0032732044 0.13492694
000070 3d 26 ab be 6c e8 d8 3d bc e0 cb bd ec 62 03 3f
       -0.3342761 0.10591206 -0.09954974 0.5132282
000080 6a 37 d0 3e b0 36 4e 3e fe 1f a6 3d b2 33 3e 3d
       0.40667278 0.20138049 0.08111571 0.04643602
000090 fa e6 a4 3c 34 b7 f9 3c 85 87 9d bd d6 2e 55 3e
       0.02012967 0.030482866 -0.07691864 0.20818648
0000a0 09 db 9b be b6 9f 90 3d e5 53 83 be 2f 8a 83 be
       -0.30440548 0.070617124 -0.25649944 -0.25691363
0000b0 90 d0 2a 3d bf c3 18 3f 4b 2e 6a 3e 60 fe 15 3f
       0.041702807 0.59673685 0.22869222 0.5859127
0000c0 bd d2 50 3f 14 ff c7 3e 09 bd d3 bd cf c1 2c bf
       0.8157156 0.39061797 -0.1033879 -0.6748323
0000d0 8a b3 0e bf 1f ec 71 be d5 e5 1c 3e 0d f9 96 bd
       -0.55742705 -0.2362523 0.15322049 -0.073717214
0000e0 b9 18 aa be ab 62 d6 be 76 b2 34 be 51 e0 02 bf
       -0.33221987 -0.41872153 -0.17646202 -0.5112353
0000f0 dc 26 33 3d b8 cf 0f 3e a2 3d 0f 3f 72 c0 97 bd
       0.04373823 0.14044082 0.5595342 -0.07409753

fc2.weight f4 [64, 64]
000000 c3 a2 41 bd 18 47 64 3d 1c 9b 7c bd ec 34 87 bd
       -0.047274362 0.055731863 -0.06167136 -0.06601891
000010 a6 49 87 3d a0 0d df bd 3a 39 e0 ba f4 ff d3 3d
       0.06605844 -0.10891271 -0.0017106899 0.103515536
000020 aa c4 63 3c b8 31 9b 3c 7a d8 af bd ec 29 a0 bc
       0.013901869 0.018944606 -0.085862115 -0.01955124
000030 73 80 03 bc cf a9 c2 3c 34 a1 2a 3d ad 46 d0 3d
       -0.00802623 0.023762612 0.04165764 0.1016973
000040 58 db d9 bd b6 80 4f bb 54 d0 7f bd f4 a9 eb bd
       -0.106375396 -0.003166241 -0.062454537 -0.11507025
000050 3c 92 8a bc 7c a9 f6 bd 2f e8 92 3d 22 bc 39 bb
       -0.016915433 -0.12044045 0.07173192 -0.0028340896
000060 fc 8e a0 bd be c7 85 3d 1a 49 f2 bd 35 03 86 bd
       -0.07839772 0.065322384 -0.11830349 -0.065435804
000070 90 7e c7 bc 3c 89 d9 bd db 00 b1 bd 43 39 e3 bc
       -0.024352342 -0.106218785 -0.08642741 -0.027737265
000080 8c 13 b4 3d d5 08 e9 3d 35 68 83 3d 37 06 a7 bd
       0.08792791 0.11378638 0.0641636 -0.08155482
000090 86 a2 b5 bd d2 68 df 3d 37 72 d8 3c a3 81 fa bb
       -0.088688895 0.10908665 0.02642165 -0.0076448484
0000a0 80 94 8a 3c 30 e3 db bd d2 25 57 bd 4b b3 d3 3d
       0.016916513 -0.10736692 -0.052526303 0.10336932
0000b0 28 8d fc bc 8f b6 c5 bc 94 90 d4 bd 0f 76 a0 bd
       -0.030829027 -0.024134902 -0.103791386 -0.07835018
0000c0 bc 73 7b bc d1 73 bc bd c0 f8 7d bc 8e 86 07 3d
       -0.015347417 -0.09201778 -0.015501201 0.033087306
0000d0 d4 69 fa bd 6d 7a b6 3c f0 44 a9 bd d4 e1 79 bd
       -0.12227216 0.022275174 -0.08265102 -0.061006382
0000e0 4f 96 0a 3d b5 eb a7 3d c6 86 52 bd 1c 36 52 bd
       0.03383475 0.081992544 -0.05139806 -0.051321134
0000f0 00 7c e7 bd 30 4a a2 bd f3 80 f6 bd 6d a7 2a bd
       -0.11302948 -0.079243064 -0.12036314 -0.041663576
000100 34 9c 1b 3f 39 6b 0a 3e bf d5 2f 3f e4 21 fe 3e
       0.6078522 0.13517465 0.68685526 0.49635231
000110 9c e6 85 be 9f db e6 3f 74 23 09 3e 20 9c 35 3e
       -0.26152503 1.8035773 0.1339243 0.17735338
000120 7e 38 76 3e df fd 86 bd c3 6b 21 3f 27 bc 6a 3e
       0.24044988 -0.06591391 0.63055056 0.22923337
000130 e9 2f 9b 3e 62 03 7d 3e 70 1d 29 bf fb 85 e8 3e
       0.3030999 0.24708322 -0.66060543 0.4541472
000140 f2 32 ac 3e 65 ce 07 bd 3b db 61 bc 0e a1 1c 3f
       0.33632618 -0.033155818 -0.013785179 0.6118325
000150 b8 d4 0a 3f 40 d8 8c 3e 5b 0b 78 3c 53 48 29 3e
       0.54230833 0.27508736 0.015139426 0.16531496
000160 7d c2 c5 3e 86 d3 a9 be 6a cc 39 bd 68 7b 04 3f
       0.38624945 -0.33169192 -0.04536096 0.51750803
000170 72 aa 91 3e bc 28 37 bf d4 4c 0c 3d ca 9b 2f 3e
       0.28450352 -0.7154653 0.034252957 0.17149273
000180 40 32 80 3e 27 7b da bc f2 d1 34 3e 50 e1 22 bf
       0.25038338 -0.026670052 0.17658213 -0.6362505
000190 9e a2 8b be 1f b8 6b bf 34 ea 24 3e e7 ed 3a 3e
       -0.27272505 -0.9207782 0.16104966 0.18254815
0001a0 30 11 07 3f 65 c8 d1 bd 24 25 58 bf bf 8d 0f bc
       0.527606 -0.102433 -0.8443167 -0.008761822
0001b0 45 90 7e be f9 94 84 3e 5a 51 cd 3e d3 7f f8 3c
       -0.24859722 0.25894907 0.4010113 0.030334389
0001c0 52 5e a2 bd 90 66 21 3e 3c 05 11 bf 3f 53 85 3f
       -0.079281464 0.1576178 -0.5664861 1.041603
0001d0 33 52 64 3f 61 ad 66 3f 53 2c e9 3d 69 2b c2 3e
       0.89187926 0.90108305 0.11385407 0.37923744
0001e0 8b e9 87 3f 55 06 a5 3e 49 cf b2 3e 27 a5 3a 3f
       1.0618147 0.32231393 0.3492377 0.7290825
0001f0 d3 68 2f 3d 4a 93 5a 3e 90 99 c2 3b 38 85 4d bf
       0.042824578 0.21345249 0.005938716 -0.802814
000200 86 0c 44 3f c4 44 bd 3e fa 1a aa be 45 23 0e 3e
       0.7658161 0.36966527 -0.33223706 0.13880642
000210 3b 09 4a bd e8 a3 55 bf 8d d4 0e be 89 e2 5d 3c
       -0.04932521 -0.83453226 -0.13948269 0.01354278
000220 57 80 71 3d e3 86 4d be b5 e4 55 3d dd dd b6 3e
       0.058960285 -0.20070986 0.052220065 0.35716143
000230 6f d9 41 bc 36 20 53 3e e5 1c 8a 3d 7e 7c db 3d
       -0.011831625 0.20617756 0.067437924 0.107171044
000240 41 6e 23 bf a1 70 fa bd d8 e5 9d be 6f 00 2c 3f
       -0.6384011 -0.122285135 -0.3083942 0.6718816
000250 35 f9 a3 3e 4b 81 8c 3a e9 d4 c9 3d c8 3d 6f bd
       0.32026067 0.0010719685 0.098550625 -0.05840853
000260 3d a4 94 3e 63 a1 28 bf 9e 2f 4f 3e d5 fd b6 bd
       0.29031554 -0.65871257 0.20233008 -0.08935133
000270 b0 5d 80 ba 0b ed 69 3f a4 8d 01 3f 5b b6 05 3e
       -0.0009793546 0.91377324 0.5060675 0.13057844
000280 eb f9 71 3e 9e 14 cc bd cc 3e 0e bd bc ef 11 3d
       0.23630492 -0.0996487 -0.034727857 0.03562902
000290 13 fe 94 3e 9a 7e a0 be 43 ba c7 3e 18 14 f9 3d
       0.29100093 -0.3134659 0.39009294 0.12162036
0002a0 39 f3 43 bf b2 b7 64 be 37 53 ea be 0a c9 e8 be
       -0.76543003 -0.22335699 -0.45766613 -0.4546588
0002b0 db 88 24 3e 85 06 90 3d a5 55 1a bf 5c c8 4d 3e
       0.16067831 0.070324935 -0.60286933 0.20095962
0002c0 f1 97 9e 3d 42 42 97 bc af 25 41 be 78 a1 71 bd
       0.07743824 -0.018464211 -0.18862031 -0.05899188
0002d0 ec 42 1e 3e 4a 92 c7 3e 9f 42 39 bf 26 a3 fe 3e
       0.15455216 0.38978797 -0.7236728 0.49733847
0002e0 07 db 63 be d5 00 29 3f 0f 18 07 3e 0e 0a 9f be
       -0.22251521 0.66016895 0.13192771 -0.3106236
0002f0 e8 a4 e9 be 71 e3 07 3f a9 0d 20 3e eb cd 7a be
       -0.45633626 0.53081423 0.15630211 -0.24492614
000300 18 98 cf 3e ee e5 14 3f 1b 22 38 3f 50 9d e9 3e
       0.40545726 0.58163345 0.7192704 0.45627832
000310 92 56 78 be 9e 8b dd 3f 34 eb 2e 3d e4 5f 69 3e
       -0.24251774 1.7308233 0.042704776 0.22790486
000320 05 88 80 3e b7 4b 65 bd 06 56 ee 3e e1 b8 8e 3e
       0.25103775 -0.05598041 0.46550006 0.27875426
000330 4f 04 9d 3d 35 20 2f 3e 12 87 62 bf 77 dc ae 3e
       0.076668374 0.1710213 -0.8848735 0.34152576
000340 25 00 64 3e 05 4e 47 be 89 17 02 3e f3 5e 21 3f
       0.2226568 -0.19463356 0.1270429 0.63035506
000350 b0 7d 22 3f e8 02 33 3e e4 be 73 bd ea 2b c1 3e
       0.63473034 0.17481577 -0.05950822 0.37728816
000360 e7 d5 18 3f c4 03 29 bf b8 c6 01 3f c8 35 af 3e
       0.5970139 -0.6602137 0.50693846 0.3422072
000370 32 2e 33 3f e4 46 e3 be 93 74 da 3c 09 82 28 3e
       0.69992363 -0.44390023 0.026666915 0.16455854
000380 57 58 1b 3e 65 a6 b7 3e b1 29 af 3d e5 e5 10 bf
       0.15170418 0.35869136 0.08552874 -0.5660079
000390 02 7d ec bd 8b db cd bf 16 e7 c0 3e 12 94 b2 3e
       -0.11547281 -1.6082624 0.37676305 0.34878594
0003a0 28 78 f0 3e 37 18 34 3e 5d e5 89 bf 10 a9 93 bd
       0.46966672 0.17587362 -1.0773121 -0.072099805
0003b0 46 87 e7 be dd 83 9b 3c d7 a8 2b 3f 9f 18 06 bd
       -0.45220393 0.018983776 0.67054504 -0.032738324
0003c0 2d 58 78 3d 40 29 9f 3e 53 15 0b bf a8 bc 86 3f
       0.060630966 0.3108616 -0.54329413 1.0526323
0003d0 24 c0 80 3f f8 d0 80 3f c5 8d d1 bb 27 e4 e7 3e
       1.0058637 1.0063772 -0.006395074 0.45291254
0003e0 ff 3f 55 3f b2 ce 32 3f 09 e0 02 3f 39 9b e8 3e
       0.83300775 0.6984664 0.511231 0.45430925
0003f0 64 e5 c2 3e df ca ad 3e 99 89 00 3e 7e 55 28 bf
       0.38065636 0.3394384 0.1255249 -0.6575545

fc2.bias f4 [64]
000000 59 95 77 3d c4 e7 be 3c 08 ac 0c 3e df d4 20 bc
       0.060445163 0.023303874 0.137375 -0.009816377
000010 71 63 84 3c a5 4d f9 3e a3 64 23 be 05 17 39 3e
       0.016160699 0.4869205 -0.15956359 0.18075188
000020 fd fb 54 3e 2c 8f 81 bc bc 6c b5 bd ea 90 97 bd
       0.20799251 -0.01581534 -0.0885863 -0.07400687
000030 e8 63 e2 3d de 0a 0e 3f a6 3d a5 bc 8a d7 0f be
       0.11054212 0.5548533 -0.020170998 -0.14047065
000040 c4 1b 48 bd e0 7b 02 bd 34 76 40 bd d6 98 09 be
       -0.048854604 -0.031856418 -0.046987727 -0.13437209
000050 bb 09 14 bc 3d f9 08 be 4b 57 ec 3e ec ec 98 3e
       -0.009035523 -0.13376327 0.4616035 0.29868257
000060 2a 8e 20 3e 5a a2 3c 3d a2 76 d7 3c be b1 5a 3d
       0.15679231 0.046053268 0.026301686 0.053392164
000070 65 44 f4 3e b7 21 77 be 8f 95 0e 3e 1e d1 ae bc
       0.4770843 -0.24133955 0.1392424 -0.02133995
000080 28 d6 45 3d b5 15 38 3e 2c 14 0f 3e 77 b1 d4 3d
       0.04829994 0.1797703 0.13972539 0.10385411
000090 4c 15 c8 bd 84 b9 80 be 6f b7 86 3e be cf e0 bc
       -0.09769687 -0.25141537 0.26311824 -0.02744281
0000a0 fe 36 84 3e 47 43 c9 3c b6 12 fb bd ea 9a 33 be
       0.25823206 0.024568213 -0.12259428 -0.17539564
0000b0 1b 69 90 3e d5 d0 2c bc a4 63 f1 3d 2f 35 3a 3f
       0.2820519 -0.010547836 0.11786583 0.727374
0000c0 90 92 fd 3e 9f bf 0d 3e 60 82 f1 bd 13 16 84 3e
       0.4952588 0.13842629 -0.11792445 0.2579809
0000d0 7c 0d d2 bd 77 8b 9a 3d 10 7a ec 3d bc 2a b6 3c
       -0.10256478 0.07546132 0.11546719 0.022237174
0000e0 4f 9d ec 3c 04 11 86 3e 76 c1 0a 3d 82 cd 93 3e
       0.028883604 0.26184857 0.033875905 0.28867728
0000f0 89 0f 31 bc 05 11 88 3d 96 3f 0e be 59 0c 10 3f
       -0.0108069265 0.06643871 -0.13891444 0.5626884

fc3.weight f4 [4, 64]
000000 cc df a6 3d 64 2b d0 be a4 d4 31 3d 30 b6 f9 be
       0.081481546 -0.40658104 0.04341568 -0.4877181
000010 e3 53 a3 be 83 08 e2 be 1d 3a 32 bf 4e 22 a2 bf
       -0.31899938 -0.4414712 -0.69619924 -1.2666719
000020 f1 04 16 bf 0a 0b 04 bf e8 c3 00 bf 2e 9c e7 be
       -0.5860129 -0.51579344 -0.5029893 -0.45236343
000030 74 05 b9 be df 73 9b 3f 8b e3 cd be ab e5 70 3f
       -0.36136973 1.2144736 -0.40212664 0.94100446
000040 56 49 c3 be 94 8f b9 be 33 c0 77 40 d6 6a 0f bf
       -0.38141888 -0.36242354 3.871106 -0.56022394
000050 72 24 d4 be a4 ca ab be 6d 72 0e 40 fd 3c e0 3e
       -0.41434056 -0.3355304 2.225734 0.4379653
000060 40 cf 79 be 5e 04 79 3f 0c 59 ba be 39 05 c3 be
       -0.24395466 0.9727229 -0.36396062 -0.38089922
000070 b8 c8 20 40 b4 9e 2b 3f c2 8b 07 bf fe f5 df be
       2.512251 0.67039037 -0.5294763 -0.43742365
000080 3e 15 d0 3c 39 77 ec 3f 0a 1b 21 bf 8a 66 04 bf
       0.025400754 1.8473884 -0.62931883 -0.5171896
000090 46 66 11 bf 1d 41 75 bf da 2d b0 be 3a 8f 78 bf
       -0.5679668 -0.9580248 -0.34409982 -0.97093546
0000a0 f5 5c 5a 3e 34 9e 9a be c0 60 89 bd f6 3a 85 be
       0.21324523 -0.30198824 -0.06707907 -0.26021546
0000b0 3f 93 85 3f 88 25 b6 be dc 01 99 be 1e 3e 8d 3f
       1.0435561 -0.3557551 -0.2988423 1.1034582
0000c0 7c e1 15 bf 34 97 d2 be ca 07 cb be f7 7c 96 3f
       -0.58547187 -0.41130984 -0.3965438 1.1756886
0000d0 05 85 aa be 81 70 10 bf 46 33 cf be de 5d 18 bd
       -0.3330461 -0.5642167 -0.40468806 -0.037198894
0000e0 83 9e c0 be 25 8c 37 bd 5e 74 6f be 92 02 00 bf
       -0.37620935 -0.044811387 -0.23384234 -0.5000392
0000f0 29 0f 44 bd 0b d8 08 bf 73 35 dc bd cb 29 82 3f
       -0.04786602 -0.53454655 -0.10752382 1.0169004
000100 ac 54 9c bd 3a 9a b4 bd de c5 09 bf 65 41 b1 be
       -0.076333374 -0.08818479 -0.53817546 -0.34620205
000110 76 b3 8b be 6f 12 82 bf 99 a5 a9 bd cc b0 bf bf
       -0.27285355 -1.0161875 -0.08283538 -1.4975829
000120 93 4d 15 bf e2 c1 15 bf 7d 55 00 bf 68 e0 4b be
       -0.58321494 -0.58498967 -0.50130445 -0.19909823
000130 fb 76 de be f3 53 85 3f 1e ae ae be c3 f5 02 3f
       -0.4345015 1.0416244 -0.34117216 0.5115625
000140 26 44 56 bf e9 77 dd be 2c 37 6c 40 a4 ea 84 be
       -0.83697736 -0.43255547 3.6908674 -0.25960267
000150 db 25 d6 be 51 7e 7b be 9e d1 28 40 55 63 ac 3f
       -0.41825756 -0.24559905 2.637794 1.3467814
000160 70 cd ef be 2e a3 47 3f 3f 83 02 bf de 63 00 bf
       -0.46836424 0.7798337 -0.50981516 -0.50152385
000170 84 0d 2d 40 6d 95 55 bf ca 6a e7 be c9 13 94 be
       2.70395 -0.8343113 -0.4519866 -0.28921345
000180 84 15 bc bc 15 b8 d9 3f 0f ba cf be 30 73 e8 be
       -0.022959478 1.7009302 -0.4057164 -0.4540038
000190 eb a0 6d be 35 8b a4 3e b4 30 eb be 82 95 3a bf
       -0.23205917 0.32137457 -0.45935595 -0.7288438
0001a0 32 4d 40 3f 8f c8 e2 be 62 ce f4 3d 9b ce e3 be
       0.7511779 -0.4429364 0.11953427 -0.44493565
0001b0 ec 1f 80 3e f7 3a 1d bf 6d f4 09 bf 54 9c 95 3f
       0.25024354 -0.614181 -0.5388859 1.1688333
0001c0 d1 f8 2e bf 5c 89 c2 be d5 45 d1 be ff 58 4b 3f
       -0.68348414 -0.37995422 -0.4087359 0.7943267
0001d0 35 b5 99 be e8 95 e7 be 1b ad cc be ac 85 eb 3d
       -0.30021062 -0.45231557 -0.3997582 0.11500105
0001e0 c9 27 d7 be 19 15 4e bd da c1 89 3e 8a 61 fd be
       -0.4202254 -0.05031309 0.2690571 -0.4948848
0001f0 b9 58 92 bd 82 0c b5 be c8 84 73 3c 6f 25 92 3f
       -0.07145829 -0.35361105 0.0148632005 1.1417674
000200 e0 92 d0 3d ea 61 c1 be ba a2 40 3e 56 46 dc be
       0.10184264 -0.37770015 0.18812075 -0.43022412
000210 ba 31 31 bf dd 15 4b 3f e1 03 56 be 33 7e ce be
       -0.692165 0.79330236 -0.20899917 -0.40330657
000220 8c 5c c8 be dd 1b f5 be 1f 87 e1 be 6f 7c 0b bf
       -0.39133108 -0.4787282 -0.44048402 -0.54486746
000230 84 a0 a4 be 85 99 9c 3f 49 ab 01 bf b1 ca 8f be
       -0.32153714 1.223435 -0.50651985 -0.2808433
000240 0e c2 93 3e ba a4 e5 be d2 dc 5a 40 78 4a 1f bf
       0.2885899 -0.4485224 3.4197278 -0.62223005
000250 13 b1 fe be 6d 80 54 bf de 2f d5 3f ae 52 74 3f
       -0.49744472 -0.8300846 1.6655233 0.9543866
000260 e3 bd 5b be c3 c7 82 bd f8 ff bb be 8e fa 86 be
       -0.21459155 -0.06385758 -0.36718726 -0.26363033
000270 22 51 29 40 d3 7e 24 be 1b 0a d1 be bc 58 d4 be
       2.645577 -0.16064005 -0.40828022 -0.4147395
000280 f7 9a 8b 3d 10 29 fa 3f 29 5a 04 bf 10 21 df be
       0.068166666 1.9543781 -0.51700073 -0.43579912
000290 26 a4 0a bf eb db d3 be 9e 11 f5 be 17 65 b0 be
       -0.5415672 -0.41378722 -0.47865003 -0.34452125
0002a0 70 a9 6d 3f c2 09 b7 be e4 4b ce 3d e6 e8 02 bf
       0.92836666 -0.35749632 0.10073069 -0.51136625
0002b0 7c dc c7 3e 2a 9e 5f bf 18 a2 ad be 5e 97 99 3f
       0.39035404 -0.87350714 -0.3391273 1.1999319
0002c0 97 47 98 be ac cb e1 be bc b8 ea be f8 6a 10 3f
       -0.2974212 -0.44100702 -0.45844066 0.5641322
0002d0 15 be 33 bf c4 d0 2a bf ac d8 4b be 10 98 55 bd
       -0.7021192 -0.667248 -0.19906873 -0.05214697
0002e0 ed 69 cc be 7d 5a d2 bf 99 ad 91 bf 5a 28 50 bd
       -0.39924565 -1.6433865 -1.1381103 -0.050819732
0002f0 6c 6a e7 3c 97 2f d6 be f0 6d 85 3d 85 e7 91 3f
       0.028248988 -0.41833183 0.065151095 1.1398779
000300 ac 88 b1 3d bd 6e 21 bf 72 e3 00 be fe ac 08 bf
       0.08668646 -0.630596 -0.12586764 -0.53388965
000310 99 3c 18 bf 08 42 ab 3e 03 af 00 bf cc 9e 7f bf
       -0.59467465 0.33448815 -0.50267047 -0.9985168
000320 7e 69 7c be 6a d7 b2 bd 39 d2 f7 be ff 7e 12 bf
       -0.24649617 -0.08732493 -0.48402575 -0.5722503
000330 13 f8 fd be 54 96 73 3f 59 fc a7 be 32 fc bc bd
       -0.49603328 0.9515126 -0.32809713 -0.0922779
000340 ba 7e 04 bb e8 6e cb be 68 08 7a 40 d7 0a e6 be
       -0.0020217136 -0.39733052 3.906763 -0.44930145
000350 b5 f6 b8 be bd 32 1f bf 2c ef 36 40 e9 0e 32 3f
       -0.36125723 -0.62186795 2.858348 0.69554
000360 f2 9f bc be ce 43 b2 3f 9c 21 d0 be e9 05 b0 be
       -0.3684078 1.3926942 -0.40650642 -0.3437951
000370 b1 d2 29 40 42 96 4a 3e d3 0a da be 32 58 f8 be
       2.6534846 0.19783881 -0.42586383 -0.48504788
000380 cf a7 76 3c ee 0d cb 3f 8b aa af be 76 47 b2 be
       0.015054657 1.5863626 -0.343098 -0.34820145
000390 50 20 c4 be a0 09 3d bf eb dc 00 bf eb 80 d3 be
       -0.38305902 -0.7384281 -0.50337094 -0.41309294
0003a0 6f d5 c1 3d 4a 97 d2 be a2 05 bc bd 82 3d 6e be
       0.09464537 -0.4113105 -0.09180762 -0.23265651
0003b0 55 ed 5b 3f 05 be 11 bf 21 46 06 bf c6 5f 80 3f
       0.85909015 -0.5693057 -0.5245076 1.0029228
0003c0 94 e5 2f be 2e 49 dc be fc d1 0d bf 58 d7 c0 3f
       -0.17177421 -0.43024582 -0.55398536 1.5065718
0003d0 be 38 1a bf 50 11 ba be 0a f8 14 bf 64 e7 dd bd
       -0.6024283 -0.36341333 -0.5819098 -0.1083515
0003e0 89 51 05 bf b8 e9 b2 bd e6 1e 0f 3f b4 df e2 be
       -0.5207754 -0.087359846 0.5590652 -0.44311297
0003f0 5a fd f1 3d 80 79 00 bf 10 ea ed bd 27 d2 6e 3f
       0.11815901 -0.50185394 -0.116169095 0.9328942

fc3.bias f4 [4]
000000 d6 ca 72 bd ef e4 c6 bc 70 97 88 3e 6d 70 e5 3d
       -0.05927547 -0.024279086 0.26678038 0.11203084
